model_weights/bbox_no_edge.pth (torch, 172297 bytes, 9 tensors)

conv1.weight f4 [32, 1, 3, 3]
00000000: 261d 953d 8677 903c bb93 29be e85c 30bc
00000010: 2339 383d dc69 42be bbca 30bd bd27 1bbe
00000020: 16fa 543b 99d5 443d 2f17 11be 76a1 64bc
00000030: 032c a8bd d949 1e3d eb32 9b3d a49d 57bd
00000040: ee34 8c3c bee7 98bd 8afa 873c 150c 0dbc
00000050: 3c8f 5bbd b433 91bd 1baf ffbd 0bd9 24bd
00000060: 75e2 103c be11 7e3d 04e9 a2bd b764 efbd
00000070: cdc3 6e3e 7b56 27bd f539 c23d 23f6 a23d
00000080: 91fc cd3b 2ea4 523d fe16 593e 8d04 123e
00000090: d744 1c3d 7068 c83a 6a3c b63d e7fa 7fbb
000000a0: 1f0e e1bb a428 c5bd b4ee cfbd 7745 edbc
000000b0: 4a48 573c b784 83bd 8c0b 49be 8440 0abd
000000c0: 2556 0a3d 8f38 f13d 2993 a33d b3ba e4bd
000000d0: d829 ca3d 9774 983d ad7b a63d 4b17 95bc
000000e0: dd60 253d 1e60 4dbe dcf5 003d 3270 13bd
000000f0: a178 423b 148a 00be 03cd 01bd 60d8 fb3d
00000100: 315b 4d3e be7f 083e ab45 fa3d f28d 713e
00000110: d07a 21bb 50f4 1c3e 0064 a63c 4ca0 613e
00000120: 5b7e 073d 6d9f 1cbc f4eb 853d c74f debb
00000130: 2e51 8dbd 26f3 2ebe 1468 7ebd e9a7 7ebd
00000140: f965 9b3d e242 713d 4857 c23d 811a 053e
00000150: 160b c0bd eb57 a2bc 038c c73d d18f e53d
00000160: c4c9 6cbe d7c9 54bc 5d54 c6bc 9686 18bd
00000170: 0cfe e13d 0274 b73d 678e f43c 1ec4 60bd
00000180: 5520 25bd a638 d5bd 6c5e 7ebd dfbc 223d
00000190: 3acc 16be de0f 28bd c8bb 763c b64d 0c3d
000001a0: 7825 2fbc a086 1dbd 8a86 e33d 34ea fd3c
000001b0: cdfd 46bd 4605 633c ca02 953d 822b fabd
000001c0: dcd5 59bd e09a 7c3d 62c3 21be 7559 39bd
000001d0: 76a4 f63c 9bb8 e33c eedc 32bc 3c39 cb3c
000001e0: cd0d 443d 3855 94bd 967e 143d 9ac7 bebd
000001f0: b614 9dbb 0dc7 693c e66a b43e aaa0 083e
00000200: 131c 213c 77e0 b93c bac4 373d 8fb0 983d
00000210: a13f ed3d 8b55 58bd 036a ad3d 1d56 0a3e
00000220: 2324 b6bd bc6e 7a3d 6cd5 bf3d cd09 c53d
00000230: 99cb dcbb 4427 9bbc df6e e93c 6463 5ebd
00000240: 5011 e33c ba9d 133c 0d61 9bbd c913 773c
00000250: 77a5 d63c 4e89 6d3d 977d 153d daf9 ffbd
00000260: 703d 00be e070 0f39 7e4c afbd 2919 963b
00000270: 7747 a1bd ec80 333e d10b f4bc 405e 383e
00000280: 5918 1abc ce97 b4bc b377 c93d 466c 11bd
00000290: bf48 e63d bb07 fb3d 53e0 c0bd bcae af3d
000002a0: 5c68 713e d14a afbd 9c89 36bc 2feb b33c
000002b0: 96ee 3a3e 4a1b 473c a197 8e3d 8952 863d
000002c0: 15d2 a13d db1c 34bd 9bbc 613e a1c7 be3d
000002d0: b0ea 963d 38a6 873d 67a0 0abe 74e2 d43d
000002e0: 73c7 103e 3c78 ba3d 3ec9 a9bd b9b1 043d
000002f0: 03de 0b3e 0846 89bd 35fe 0a3e 736f 7abd
00000300: 5eb5 c0bd e46a 63bd 9239 ea3b 12e0 c3bd
00000310: 26f5 96bd 395a 3e3e bc6e 353e fb15 493d
00000320: 0663 673e 519f 093e 8a5b ea3d 4c5d 213d
00000330: f4f1 f33c ba14 d73d 4ea6 53bd 4b27 cdbd
00000340: 86d6 afbd 018d 183d bd81 b43d c02d 8c3d
00000350: 93c7 cabd ebd0 ec3d 90a2 05be 0e36 f43c
00000360: 3119 83bd 96ce 6d3d 379e 263e 2fcd 523c
00000370: 30c9 d7bc 0013 db3c a194 bc3b 441d c0bc
00000380: 4c7a 0f3e 8365 94bd e4db 9e3d d537 3ebd
00000390: ba32 b03d 188f 24bd be31 1f3e 2070 a3bb
000003a0: 2592 db3d 7207 94bc 4c83 f3bc 20f3 e5bc
000003b0: 5ad7 dbbd be50 1ebd 694d 593d 93cd 00bd
000003c0: 3ee7 74bd 9ef4 cc3b df21 bf3d 0e2b 42bd
000003d0: 2242 ecbd 2a9d 69be 5e77 803e 06fa 443d
000003e0: f035 10be ea35 cb3d 1801 3abd 5fb2 bdbc
000003f0: 1585 3a3d c3fc 3f3d 52dc 8e3d dc5e fe39
0.0728095 0.017635118 -0.16560261 -0.010764338 0.044976365 -0.18985695 -0.04316209 -0.15151878
0.0032497696 0.048055265 -0.14169 -0.013954511 -0.082115196 0.038644645 0.07578071 -0.052640572
0.017115083 -0.07466076 0.016598959 -0.008608838 -0.053603396 -0.0708994 -0.124845706 -0.04024605
0.008843054 0.06202864 -0.079546005 -0.11689132 0.2331688 -0.04085396 0.09483711 0.07957103
0.006286212 0.051426105 0.21200177 0.14259548 0.03815159 0.0015289914 0.08898242 -0.0039059462
-0.0068681384 -0.09626892 -0.10152951 -0.028963787 0.013139794 -0.06421798 -0.19633311 -0.033752933
0.03377356 0.11778366 0.07987053 -0.111684225 0.09871262 0.07444113 0.08129058 -0.018199584
0.04037558 -0.20056197 0.03148447 -0.03599567 0.0029673951 -0.12552673 -0.031689655 0.1229713
0.20054318 0.1332998 0.12220319 0.23589304 -0.0024639852 0.15327573 0.020311356 0.22033805
0.033079486 -0.009559494 0.06539145 -0.0067844125 -0.069002494 -0.17084941 -0.062110975 -0.06217185
0.07587809 0.058901675 0.09489304 0.12998392 -0.093771145 -0.019817313 0.09743502 0.112090714
-0.23123842 -0.0129875755 -0.02421015 -0.037237726 0.11034784 0.089576736 0.029853059 -0.054874532
-0.040314037 -0.104111955 -0.062101766 0.039730903 -0.14726344 -0.041030757 0.015059419 0.0342538
-0.010690086 -0.038458467 0.11109646 0.030995466 -0.048581887 0.013856238 0.072759226 -0.1221533
-0.053182468 0.061671138 -0.15797189 -0.04525133 0.030107718 0.027797988 -0.010916932 0.024807565
0.047864724 -0.07242817 0.036253534 -0.09315415 -0.0047937287 0.014268649 0.35237807 0.13342538
0.009833354 0.022690041 0.044865347 0.07455551 0.11584402 -0.052815955 0.08467486 0.13509412
-0.08893611 0.06114076 0.09366879 0.0962101 -0.006738138 -0.018939622 0.02849525 -0.054294005
0.027718216 0.009009773 -0.0758687 0.015080401 0.026201947 0.057992272 0.036496725 -0.12498827
-0.12523437 0.00013679592 -0.085595116 0.004580636 -0.07874959 0.17529649 -0.02979079 0.18004704
-0.009405219 -0.022045042 0.09837284 -0.03550365 0.11244344 0.12257334 -0.094177864 0.0857825
0.23574966 -0.08559192 -0.011141207 0.02196273 0.18255076 0.012152502 0.06962515 0.06558711
0.07901398 -0.04397283 0.22044604 0.0931542 0.07368982 0.066235006 -0.13537751 0.10394755
0.14138584 0.09104964 -0.08290337 0.032396052 0.1365891 -0.067028105 0.13573535 -0.061141443
-0.09409593 -0.05552186 0.007147976 -0.095642224 -0.07370977 0.18589105 0.17718023 0.049093228
0.22596368 0.1343968 0.11443241 0.039395615 0.029778458 0.10502 -0.051672272 -0.1001726
-0.08585839 0.037243847 0.08813808 0.068446636 -0.09901347 0.115632854 -0.13050294 0.029810932
-0.06401289 0.058058344 0.16271292 0.012866302 -0.02634105 0.026742458 0.0057550226 -0.023451455
0.14011496 -0.07245924 0.077567846 -0.046439964 0.08603425 -0.040175527 0.15546319 -0.0049877316
0.10721234 -0.018069956 -0.029725693 -0.028070033 -0.107344344 -0.03865122 0.05305234 -0.03144605
-0.059790842 0.0062547466 0.09332632 -0.04740434 -0.11536051 -0.2281386 0.2509107 0.048090003
-0.14083076 0.09922393 -0.0454112 -0.023156343 0.045537073 0.04687191 0.069756165 0.0004851733

conv1.bias f4 [32]
00000000: 5b40 b83c 9fcf c9bc 28cf 3bbc 71d7 e1bd
00000010: 2b5c 98bc 2cce a5b9 bcaf fdbb 1ae5 4abe
00000020: a4cc 34ba ecbf 5e3d a287 f7bc d45b a0ba
00000030: e4e2 e1bc 2884 0cbd c07e 8dbd 2234 ae3c
00000040: c59b 84bc 1e7e 0a3d 18b5 39bd b88d 9cbd
00000050: 0dbd 2939 15c1 ed3d 8f9d 52be 807c cfbc
00000060: 5286 583b 21da a3ba 1a35 37bd 9587 363e
00000070: 1674 9ab9 65e1 c73c a659 a8bc 6124 0bbe
0.022491625 -0.024635134 -0.011462964 -0.1102742 -0.018598637 -0.00031624862 -0.0077418964 -0.19813958
-0.0006896949 0.05438225 -0.030216042 -0.0012234398 -0.02757401 -0.03430572 -0.06908941 0.021265093
-0.016187558 0.03381168 -0.04533872 -0.07644218 0.00016187523 0.11609093 -0.20567916 -0.02532792
0.0033039046 -0.001250092 -0.044728376 0.17825158 -0.0002945966 0.024399469 -0.02055056 -0.13588096

conv2.weight f4 [32, 32, 3, 3]
00000000: 380a 84bd bd5e 99bc 2fc9 083d 13fe 2c3c
00000010: 48de d13d 57ce 78bc f529 30bc 9dcc 9abd
00000020: d088 dd3d f8cf bc3a 8db7 82bd 7c6e c0bc
00000030: 55f3 033a 0e4e 6c3c 6607 913b e360 2dbd
00000040: 5d2d 5a3e b7a6 703c edf4 613d d6bc 70bd
00000050: 90bd ec3d f41c 683d aaa9 b9bd c6f1 1dbd
00000060: fa24 64bd 0787 073e 0b52 ffbc d505 8dbb
00000070: 4a68 24bd 2a3c 073e a84b 5bbb 8ac1 d13d
00000080: fe7b aa3c f0a2 83bd 5a8c 1bbd a086 09bd
00000090: ef0c 9abc 45dc e83c 9dc9 f4bd 56c2 b4bd
000000a0: 7dc8 f83d b651 ddbd 6950 06bd 2d67 473e
000000b0: 3e98 e7bc c8d2 253e 5713 933d 1088 b13d
000000c0: f78f 65bd 4472 fbbc 17a5 02bc 89b3 bcbd
000000d0: 52fb e9bd 9287 2ebc 4946 25bd ad30 d2bd
000000e0: 7d0b 403d ddda 683e 9d20 a63d 8a9d 21bc
000000f0: 3689 af3a 500e cebd 37c4 093e 47bf b8bd
00000100: 8b46 e2bc b338 70bc 5333 333d 708a 6abe
00000110: 6d4d 08bd 9eae 7fbc ef67 2d3d 9279 87bd
00000120: 9221 65b9 cd9e 92bd 17a0 dcbd 095b b13c
00000130: c4a6 0b3d 39c6 3f3d ac69 31bd 0942 bdbc
00000140: e8e9 4a3c b4b8 bebd e5d5 ff3c 8e10 d73b
00000150: 7ba2 0d3d 1cad 3abe 0af4 2cbc e95a 983d
00000160: f0df 923d bef6 8fbd 562e a83d 1f78 cd3d
00000170: 04b0 703d a89b 20be f4da fe3c c410 813d
00000180: 06c7 083e dda2 fabd b25e e93d 9522 abbc
00000190: 0038 43bd 84d6 9d3d dbdc b63d 3d4d 1fbd
000001a0: 4838 2bbe 91d9 70bd 1093 4f3d 0bf8 243d
000001b0: 1b1f 18bd 09b2 423c cb4f edbd 9e7a 183c
000001c0: b00d 54bd 218e d9bc c376 073e c664 6e3d
000001d0: 875b 973c c401 623d dadb 56bd c696 893d
000001e0: 6ebf 7ebb 6f18 253b 7bf8 7b3c 0fcb 85bc
000001f0: 1020 bfbc a424 67bd 1279 b23d e4b9 01be
00000200: d0f3 933d 13a9 3a3c 9a77 13be 5e9e 313d
00000210: 464e e93b c4ad f7bc cdae 4e3d b416 b73d
00000220: c247 4b3e db7a ccbd 69a1 10bc 9ac1 083d
00000230: 155c 873d 6ecf 8d3c cdfa 253d 45c0 8d3d
00000240: a705 bd3c f905 a63d d602 8bbd 93cd bc3d
00000250: 5f48 2ebd b309 c8bd 311b 7d3c 77f2 a03d
00000260: ddca f6bc 7272 9bbd 7c99 41bd 1b30 f8bd
00000270: 20d6 733d 490b d43d 3c4a e43c 473c cabc
00000280: 8a34 823d 6f91 cfbd cc65 99bd 5dea 0d3e
00000290: 7156 d63d c916 d8bc 5427 f0bc 0c9a 803d
000002a0: 1b38 10be b9aa 19be b23d 5ebd 642d 44be
000002b0: 8cb9 0e3c a319 693d 0099 863d c472 133c
000002c0: f0af d2bc 6d11 adbd d608 de3d 7c5e e33d
000002d0: 5d18 76bd e75a 2c3d b2ee 203e 4d27 34be
000002e0: def6 4abd b9ba 263d de7c fa3b 86dc 08bd
000002f0: d8cd 4d3e f8f9 6bbd a164 8fbd e116 9cbd
00000300: 548f e23d a2ae 063c ab1d 3d3c b465 95bc
00000310: 63c9 c13d 03a8 a63b d49c 1a3d bfd4 c03d
00000320: c7d1 b0bd 9f44 733d e825 923d d732 b03d
00000330: 1b3e 25be 8073 45bd d48e 65bd 863e 7dbd
00000340: e7ba 553c 2040 21be 5823 9a3d 59bd b93d
00000350: 447e 5f3d 9458 d73c f9c1 b3bd 435b 08bd
00000360: d8f8 64bd 5e8c fd3c fd23 dc3d 5ab5 c5bb
00000370: 544d c63d c57b c7bc addd 0c3d ee4f 173e
00000380: 43aa c53d 3b9a 8dbc a637 a73c c878 6dbd
00000390: 4911 c83d d0f3 1d3e 5802 a83d 9195 a23c
000003a0: d2fd 39be fcf4 343e 0c49 8a3b 1261 043e
000003b0: b9a9 3bbd 0c32 8b3d c5c2 ab3c 0eb8 23bc
000003c0: 1074 a7bb c6d0 3ebc 692b c63c 43c9 a03d
000003d0: 79ae 033c f45d 5abc 6bcc adbb 4de7 3e3b
000003e0: 740a fb3d b5b9 b93d 8289 833d 508b 1d3e
000003f0: ca16 353b ae40 003d 97db 863d 3c76 183d
-0.064472616 -0.018721933 0.03339499 0.010558623 0.10247475 -0.015185914 -0.010752191 -0.07558558
0.108171105 0.0014405241 -0.06382666 -0.023490183 0.0005033513 0.014422907 0.004425931 -0.042328727
0.21306367 0.014688185 0.05516522 -0.058773838 0.11559594 0.056668237 -0.09065564 -0.03856065
-0.055699326 0.13235103 -0.03116705 -0.0043036737 -0.04013852 0.13206545 -0.0033461843 0.10241993
0.020811077 -0.06427562 -0.037975647 -0.033575654 -0.018804995 0.028425345 -0.11952517 -0.08826129
0.12147615 -0.10806601 -0.03279153 0.19472952 -0.028270837 0.16193688 0.07181423 0.0866853
-0.0560455 -0.030694135 -0.007973931 -0.09213931 -0.11424889 -0.01065244 -0.040350232 -0.102631904
0.046885956 0.2273974 0.08111689 -0.00986422 0.0013392332 -0.10061324 0.13453756 -0.09020858
-0.027621528 -0.014661956 0.04375012 -0.22904372 -0.033276964 -0.015605597 0.042335447 -0.066149846
-0.00021851648 -0.07159195 -0.10772722 0.021649854 0.034094587 0.0468199 -0.043313667 -0.023102777
0.012384869 -0.09312573 0.031229923 0.006563253 0.03457878 -0.18230098 -0.01055623 0.07439215
0.07171619 -0.07029484 0.08211963 0.10032677 0.05876161 -0.15684378 0.031110264 0.06302026
0.13357171 -0.12238095 0.11395015 -0.020890513 -0.047660828 0.07706931 0.089288436 -0.03889202
-0.16720688 -0.058801237 0.05067736 0.040275615 -0.03713904 0.011883267 -0.11587485 0.009306578
-0.051770866 -0.02655703 0.13228898 0.058201574 0.01847626 0.055177465 -0.05245576 0.06718211
-0.0038871425 0.0025191566 0.015379067 -0.016332177 -0.023330718 -0.056431428 0.087144986 -0.12668568
0.07224238 0.0113928495 -0.14401093 0.04336392 0.0071199266 -0.030234225 0.05045967 0.08939877
0.19851592 -0.0998437 -0.008827546 0.033387758 0.0660936 0.017310824 0.040522385 0.06921438
0.023073984 0.08106608 -0.0678765 0.09218898 -0.042549487 -0.09767475 0.0154483775 0.078587465
-0.03012603 -0.07590188 -0.047265515 -0.121185504 0.059530377 0.10353715 0.027867429 -0.024686946
0.06357677 -0.10135161 -0.07490119 0.13858934 0.10465706 -0.026378052 -0.029315628 0.06279382
-0.14083903 -0.15006532 -0.054258056 -0.1915794 0.00871123 0.056909215 0.06572151 0.00899953
-0.02571866 -0.08450589 0.10841529 0.11102006 -0.06008183 0.04207888 0.15716055 -0.17593117
-0.049551837 0.040705416 0.00764428 -0.033413433 0.20098054 -0.057611436 -0.07001615 -0.07621551
0.11062494 0.008220347 0.011542718 -0.018236972 0.094622396 0.0050859465 0.03774722 0.09415578
-0.08633762 0.059391614 0.07136136 0.08603447 -0.16136973 -0.048205853 -0.056044415 -0.061827205
0.013045049 -0.15747118 0.075262725 0.09069318 0.054563776 0.026287355 -0.08777232 -0.03329016
-0.05590138 0.030950721 0.10749052 -0.0060335817 0.09682718 -0.02435101 0.034391094 0.14776585
0.096516155 -0.017285457 0.020412277 -0.057976514 0.09768922 0.15425038 0.08203572 0.01984671
-0.18163231 0.17671579 0.0042201336 0.12927654 -0.045816157 0.06796655 0.020966897 -0.0099926125
-0.0051102713 -0.011646455 0.024190621 0.078508876 0.008037203 -0.013328064 -0.0053039095 0.0029129565
0.12257853 0.09068624 0.06422712 0.15385175 0.0027631992 0.031311683 0.06584852 0.037222132

conv2.bias f4 [32]
00000000: 8351 613d 90d9 1abd 36e7 56bd e71c d2bc
00000010: a925 9e39 e13e b13c 5216 bebd 60a1 953c
00000020: 7c18 efbc 3ff4 0abd e726 96bd d16c 37be
00000030: bdc8 22be 8f77 3dbd 17f8 7e3d fae1 16bd
00000040: a402 763c d312 523d 3a08 f8bd b37e 4dbd
00000050: 15d0 babb ae9d faba 7ac3 99bd 7bd8 31bd
00000060: 695d cdbd 348a c9bb b89c 323d 1748 a5bc
00000070: 0ad6 013e e56d 02bd 96bb 60bd f9d2 92bd
0.055009376 -0.03780514 -0.052466594 -0.025648547 0.00030164167 0.021636428 -0.09281601 0.018265426
-0.02918648 -0.033924337 -0.07331639 -0.17912604 -0.15896888 -0.046256598 0.062248316 -0.0368366
0.015015278 0.051287483 -0.12110944 -0.050169658 -0.005701075 -0.0019120479 -0.07507987 -0.043419342
-0.10027582 -0.0061505083 0.04360649 -0.020175977 0.12679306 -0.031843085 -0.054866396 -0.07169146

conv3.weight f4 [1, 32, 3, 3]
00000000: 8372 95be 4389 a0be 51cc 9e3e 9883 083f
00000010: 0fb8 0b3e 9e10 3bbf 7649 07be 790f 4a3e
00000020: 8c40 e4bc 7861 54bf 9fbe 323e bd66 8cbe
00000030: f400 a5be 5961 773e b09e d8be 5b2e ad3e
00000040: 8fd8 883f 0c0c b1be 5e53 4a3e 30b0 033f
00000050: 451d 8a3f 64b5 bb3e 64d5 943e 59fa 69bd
00000060: 0353 c13e dba6 a43d d1d1 8a3d 3a20 d13e
00000070: ff95 ecbe a8de d83e 2c62 da3d 517b 9cbe
00000080: 33bf 0abf 9471 893f 82d8 3a3f 3b37 f0bd
00000090: 86a8 6bbe 7277 f1bd 7d69 29be 1a45 c5be
000000a0: d44a 62bf ef78 d7be 28db 81be d788 57be
000000b0: 9e77 ca3d 6ad9 f9bd f17e 7ebf f37b 2dbf
000000c0: 7228 2c3f 296b babe 41bc 5bbe c3fa 40be
000000d0: c348 71be a9f0 973f 1243 3dbe 46f6 20be
000000e0: 0be2 323f b726 6ebd 891e 86be d2c8 f83e
000000f0: d5a1 373f 369c a0be 60b6 de3e a3fe 8ebd
00000100: 3f3e 203d 7009 a1be 2ca6 7d3e 96e8 74bf
00000110: 8a54 973e beef 363f f4b2 943e f95b 6dbf
00000120: edb4 6ebf 8b7a f5be 1972 1a3f ffa8 a2bc
00000130: d44e da3c 78e0 40b8 9d20 44be b907 203f
00000140: af3c 1ebf 4fdb c83e 316c ed3e 1146 723e
00000150: 3bc8 153f b654 51be 4f9f 4a3e 89eb 543f
00000160: 238b b73d 3893 28be ce01 e7ba 3b13 09bf
00000170: a790 15be cfd7 f73d b136 c9be a8f1 653e
00000180: 1224 a83e 43c4 483e 0ed2 e13e 5a08 6c3f
00000190: 903f 5ebe 0a10 103f 6672 c33c 6d91 0ebf
000001a0: 1c1d 153f 1c60 89be 5d6f d23c 97bb 8f3e
000001b0: 3ce5 9d3e 7dfc 573d cc9e 393e 4253 97bf
000001c0: d8e2 99be 37ed af3e 1053 b23d bff6 8a3e
000001d0: b4d7 6e3e a66a 6f3f fc63 1a3e 5022 87be
000001e0: 7c9c c83e e027 e63e bad9 a0be 5c74 36be
000001f0: 1839 d5bd 413b 05bf 8ef1 16bf 6c65 f7be
00000200: a7ca d43e 6209 b3bd a99c 4fbf 8604 4cbf
00000210: 1d6b 9b3e 787c e63e 6330 dbbe 4c1a 203f
00000220: a317 60be d729 cbbd f37e b83e 5a8a 2b3e
00000230: 8215 523e 152e 2d3f 3884 8a3e 4a01 75be
00000240: 0364 81bc 3098 f0be 8c32 b9be d86b e73e
00000250: ce15 0f3f d9af 06bf 28bd bf3e 13d2 37bf
00000260: 17b7 8abe eb34 df3d 8c60 433f d23d 99bd
00000270: fddb 0ebf dfdc 75bf c0cd 663e fd3a 6dbe
00000280: 6236 3dbd 2751 47bf e955 42be 5272 9a3f
00000290: eccf 743f 0933 c0bb 1807 373e 4159 da3e
000002a0: 4d62 e0be c626 513e b220 c3be c36b b1be
000002b0: 920c c3be 7bd6 22bf 365f fd3e 4b45 df3e
000002c0: 185c 58bf 6f3b 58bf 7dc6 ebbe 490a ebbe
000002d0: c41d f3bc af77 953e 0e26 4b3e 8e88 06bf
000002e0: 53a1 0cbf 7343 f5bc a2b4 0dbf 33ad 98be
000002f0: 7a99 4c3d e029 93bd 02d3 3bbf 24af d5bd
00000300: d566 4fbe 2436 f6bd c87e faba 333b efbe
00000310: 5d3b a33e faa1 d13e 9f15 06bf 6108 27bf
00000320: d2d2 c13e ac2b 8ebf 96a4 273f 6500 603e
00000330: 5aca 053f 4fe9 5e3e eeb1 f83e 3325 483e
00000340: baa5 7a3c f013 86be e5ba 06bf b39f 103f
00000350: 13f9 57bd 9ac6 fbbe 134b 3c3d fd6d 8d3e
00000360: 0ac9 9bbe 620f 143e a99b 20bf 2d58 86be
00000370: 410d e6be 4f54 943e ffeb 12bd 8c2a f33b
00000380: cf0b ad3e e086 2b3e 90d0 f1bd f264 003f
00000390: 7b44 9a3d 9fc9 003e ec2d aa3d faf4 f6bd
000003a0: 025d f83e 7a58 e93c ea55 0e3e c46b 233f
000003b0: fd4f 903d 5b79 b9bd 2fa4 d03e a211 92be
000003c0: 7092 29bf 6c50 01bf 2c4e 0b3e 3c82 373f
000003d0: b475 013f 2c5b 6d3d bf9a fdbe 0244 37be
000003e0: f23a debe cb94 d8be fdce 84bf 3286 8c3e
000003f0: a39b 0c3d 73fe 38bf 6148 30bf f010 9cbe
-0.29188928 -0.31354722 0.31015256 0.53325796 0.13644432 -0.7307223 -0.13211617 0.19732465
-0.02786281 -0.82961226 0.17455529 -0.27422133 -0.3222729 0.24158229 -0.4230857 0.3382443
1.0691088 -0.34579504 0.19758365 0.51440716 1.0790182 0.36661828 0.29069054 -0.057123516
0.37758645 0.08039638 0.067783006 0.408449 -0.46208188 0.42357373 0.10663256 -0.30562833
-0.54197997 1.0737786 0.72986615 -0.117292844 -0.23013505 -0.117903605 -0.16544147 -0.38529283
-0.8839543 -0.42084453 -0.25362515 -0.21048294 0.098860964 -0.121996716 -0.9941245 -0.67767256
0.67249215 -0.36409882 -0.21458532 -0.18845658 -0.23562913 1.1870319 -0.18482617 -0.15718946
0.69876164 -0.05814239 -0.2619517 0.48590714 0.7173131 -0.3136918 0.43498516 -0.06982162
0.039121863 -0.31452513 0.24770421 -0.956674 0.29556686 0.7145957 0.2904278 -0.92718464
-0.9324482 -0.47945055 0.6033035 -0.019855974 0.026648916 -4.598542e-05 -0.19153066 0.62511784
-0.61811346 0.3922982 0.46371606 0.2365954 0.5850865 -0.20442471 0.19787334 0.831719
0.08962085 -0.1646241 -0.0017624439 -0.5354497 -0.14605962 0.12101709 -0.3929954 0.22455466
0.3284002 0.19606118 0.44105572 0.92200243 -0.21703935 0.56274474 0.02385826 -0.5569065
0.5824754 -0.26831138 0.025687868 0.28072807 0.30838954 0.052731026 0.18126982 -1.1822283
-0.3005588 0.34360668 0.08707249 0.27141377 0.23324472 0.9352211 0.15077204 -0.26393366
0.39181888 0.44952297 -0.31416112 -0.17817825 -0.104112804 -0.5204354 -0.58962333 -0.48319566
0.4156086 -0.08742024 -0.8109842 -0.796944 0.30355158 0.45016837 -0.42810354 0.62540126
-0.21884017 -0.0992009 0.36034355 0.16751996 0.20516017 0.6764844 0.27054 -0.23926273
-0.01579476 -0.4699111 -0.36171377 0.45199466 0.55892646 -0.5261207 0.37449002 -0.7180492
-0.2709281 0.10898765 0.76319194 -0.074824944 -0.55804425 -0.9604015 0.22539425 -0.23167033
-0.04619444 -0.77858204 -0.18978085 1.2066138 0.95629764 -0.005865459 0.178738 0.4264622
-0.43824998 0.20424947 -0.38110882 -0.34652528 -0.38095528 -0.6360852 0.49486703 0.43607554
-0.84515524 -0.8446569 -0.46049872 -0.45906284 -0.02967728 0.29192874 0.19838735 -0.52552116
-0.5493366 -0.029939389 -0.5535375 -0.2981964 0.049951054 -0.071857214 -0.7336885 -0.10433796
-0.20254071 -0.12022045 -0.001911127 -0.46724853 0.31881228 0.4094389 -0.5237674 -0.6524716
0.37856156 -1.1107078 0.65485513 0.2187515 0.5226189 0.21768688 0.4857325 0.1954544
0.015298301 -0.26187086 -0.5262893 0.5649368 -0.05272777 -0.49174958 0.045970034 0.27622977
-0.30426818 0.14458993 -0.6273752 -0.26239148 -0.44931987 0.28970572 -0.035869595 0.0074208435
0.33798072 0.1675067 -0.11807358 0.5015403 0.07532593 0.12576912 0.0830954 -0.12058444
0.4850846 0.028484572 0.13899961 0.6383631 0.070465066 -0.0905635 0.40750262 -0.28529078
-0.6623907 -0.5051334 0.13604039 0.71683097 0.50570226 0.057948276 -0.49532124 -0.17897037
-0.43404347 -0.4230102 -1.0375668 0.27446133 0.034328114 -0.7226326 -0.6886044 -0.30481672

fc1.weight f4 [32, 1004]
00000000: 9da7 803a f328 c83b f1e8 0f3a cf04 e73b
00000010: 1fa2 99bc 30b4 d93b ff2c f93b a1a5 25bc
00000020: 925f b7bb f441 463c 864f 96bc f050 493c
00000030: c6e2 9f3b c5c1 aabc d1a1 7139 79b6 1b3c
00000040: 40e9 70bc e718 eebb 0578 acbc c0ad 26bc
00000050: b580 d03c b822 de3b 5d5f a63b 5a05 813c
00000060: 9ab5 67bb 737f e83b 1c00 a73c 2fe0 8c3c
00000070: c24d 203c eb06 00bd 5283 883c d7df 1a3c
00000080: 0045 953b 42c4 843b 2a4c 933b 8940 783b
00000090: a71c 6d3a f1c8 6d3c 15ff 5ebc d946 0a3c
000000a0: 8c83 b3bb 8e90 9ebc 4630 fdba 350a fc3b
000000b0: b29f 38bc 74aa 75bc c5f1 3abc b3e5 03bc
000000c0: ca90 963c 472f ee3c 2f50 10bd 2362 a5bc
000000d0: c851 923b e857 afb9 c727 2b39 b239 0f3c
000000e0: 6e68 60bc 634f d3bc 68fc 2b3c bec1 463c
000000f0: eff0 243c 8381 0abb 46a0 ca3b 9569 2fb9
00000100: f885 d2bb 1708 153c b83b 293c 5e14 22bb
00000110: f0f4 423c cad7 823b e5f7 573b ec07 e83b
00000120: df1b b03c 05f6 5abc 1cfd 393c db25 2a3c
00000130: 5307 2d3b 3786 a7ba fe01 633b a068 933c
00000140: e2ae 85ba 85cd c53c f916 54ba 1c00 cbbb
00000150: a6f0 a23c e86a 6dbc 8777 5abc 02cc d73b
00000160: 6943 383c ccea 393c 394e 133b e980 d3bb
00000170: a010 80bb 96ec da3c e47b ccb9 2b12 2ebc
00000180: 84fa bcbb 649f 18bb 3f6f 43bb 91c1 3bbc
00000190: f1e3 7f3b 15a6 cf3b 6296 32bc cb03 4dbb
000001a0: e4a0 21ba 40d8 5b3b d453 02bc f1c2 253b
000001b0: 6b92 a8bc 162c 47ba 39b0 c03b 9709 963c
000001c0: c832 d53b aff1 fb3b 858e 38bb bced 73ba
000001d0: 8d02 05bc 8e52 443c 01c8 94bc 4cb7 e4bb
000001e0: 5d1c 6bbb 0a61 39bb 1d91 263c 3a54 cf3b
000001f0: 5a38 83bb 83d6 b0bb a4b5 50bb 657b 873c
00000200: b692 063d 96da 5ebc 1c78 93bc ec85 b6bc
00000210: cd3f ddbb ba35 493c 2943 223c 0947 6cbc
00000220: 440d aabc 29c9 7bbb d957 a83b dfb0 0dbc
00000230: 8210 3f3d 598c a9ba d907 cf3b 5f44 3bbb
00000240: 1b27 02bb 0def 033a 1b77 a6bb dcfa 363c
00000250: 9ade 52bc 08a6 fbbb 43c6 3cbb c124 4abc
00000260: a610 c7bb 9d48 c33a b3ed 843a 471e b5bc
00000270: a2f2 083c 3eda f93b 2ce0 423c d4aa d1ba
00000280: d3fd 293c 8b0b 9fbb fcc9 9aba 41e5 fb3b
00000290: 932c 86bc 00c5 95bb f064 d33c a612 c83b
000002a0: 8c85 95bc e672 b8bc b3ba abbc 3ebc d9bc
000002b0: 4715 5ebb 582e 7a3c c862 dfbb 61c5 81bc
000002c0: 5d15 84bc f9d0 61bb a706 64bc 3672 43bb
000002d0: 0c8a 54bc 581e 5dbc 2bab 0abc da89 bbbc
000002e0: 7a6a 81bb 2367 45bb 981f 2dbc a214 0cbc
000002f0: a5f4 58bc 5427 983b 36d8 783b f81c 933c
00000300: c501 e43b 2bc8 0dbc 9a3a 883c a37f 863b
00000310: c8e4 d93a 1ff8 de3a d1da 773b 37f8 ff3b
00000320: b44f d9bb 0614 abbc 1fef e03b 5fcb 0b3c
00000330: 469e 883b c46a d53c 4517 f53b df85 9fbc
00000340: 65c3 1abc 5b41 a13c 8c7a 01bc 5ba6 70bc
00000350: 889a 8cbb 3d23 733c 1e93 b5b9 19ab 98bb
00000360: 4f83 ddbb 907c 25bb 51f8 753c 181a 2fbc
00000370: be20 26bb 9878 00bb 1873 363b 58d6 23bb
00000380: 7530 983b 363a 15bb 340b 0ebc 1d90 d3bb
00000390: 0d42 d2bb 8519 3a3b 048a 4f37 7e38 e2bb
000003a0: a540 db3b 2ab0 f43b 9604 543c cc2c 04bc
000003b0: 9ca7 3a3a af3d 943a f9a8 a43c 6118 573c
000003c0: 4e91 8cb9 cb88 3fbb cce1 323c 7299 f339
000003d0: 1af9 56bb f30f d83b 6d1d 883b b8a4 34bc
000003e0: ff41 a8b9 2556 573b 8e7d 3ebb 4570 8d3a
000003f0: a581 7c3b 7539 133c 45b4 14bc 4863 72bb
0.0009815578 0.006108397 0.0005489728 0.007050134 -0.018754063 0.0066437945 0.007604241 -0.01011029
-0.0055961097 0.012100685 -0.018348467 0.012287363 0.0048793284 -0.02084435 0.00023043832 0.009503954
-0.014704049 -0.007266152 -0.021053324 -0.010173261 0.025451997 0.006779041 0.005077286 0.015749622
-0.0035356046 0.0070952713 0.020385794 0.017196743 0.009784164 -0.031256597 0.01666418 0.009452782
0.0045553446 0.004051716 0.0044951634 0.0037880263 0.0009045102 0.01451324 -0.013610621 0.008439743
-0.005478328 -0.019356038 -0.0019316755 0.0076916465 -0.011268543 -0.0149942525 -0.011410181 -0.00805037
0.018379588 0.029075278 -0.03523272 -0.020188397 0.0044653155 -0.00033444096 0.00016322649 0.008741783
-0.013696773 -0.02579469 0.01049719 0.012131153 0.010067209 -0.0021134324 0.006183657 -0.00016728633
-0.0064246617 0.009096167 0.0103291795 -0.0024731378 0.011899218 0.003993009 0.0032954153 0.0070810225
0.021497665 -0.01336432 0.01135185 0.010385002 0.002640207 -0.0012781088 0.0034638639 0.017994225
-0.0010199214 0.02414585 -0.00080905814 -0.0061950814 0.01989014 -0.0144908205 -0.013334162 0.006585599
0.011246541 0.011347484 0.0022477044 -0.0064545763 -0.003908232 0.026724141 -0.00039002218 -0.010624449
-0.0057671685 -0.0023288364 -0.0029820947 -0.011459724 0.0039045776 0.006336937 -0.010900112 -0.0031282778
-0.0006165637 0.0033545643 -0.0079545565 0.0025293196 -0.02057763 -0.0007597817 0.0058803824 0.01831512
0.0065062977 0.007688723 -0.002816112 -0.00093051395 -0.008118284 0.011982573 -0.018161776 -0.0069798585
-0.003587506 -0.00282866 0.010166434 0.0063271793 -0.0040045204 -0.0053966655 -0.0031846547 0.016538331
0.03285476 -0.01360192 -0.018001609 -0.022280656 -0.0067519904 0.012280876 0.009903708 -0.014421233
-0.020758279 -0.0038419461 0.0051374254 -0.008648126 0.046646602 -0.0012935504 0.006318074 -0.0028574688
-0.0019859734 0.0005032875 -0.0050801164 0.011168208 -0.012870455 -0.0076797046 -0.0028804697 -0.012337864
-0.0060749827 0.001489896 0.0010141641 -0.022109164 0.008358629 0.0076248934 0.011894267 -0.0015996345
0.010375458 -0.004853671 -0.0011809464 0.0076872413 -0.016378677 -0.0045706034 0.025804967 0.0061057387
-0.018252157 -0.022515725 -0.020963049 -0.026579019 -0.0033887194 0.015269838 -0.0068171956 -0.015841188
-0.016123468 -0.0034456833 -0.013917602 -0.0029822714 -0.012972366 -0.013496004 -0.008463661 -0.022892881
-0.0039494606 -0.0030121289 -0.010566615 -0.008549841 -0.013241922 0.00464336 0.0037970669 0.01795815
0.0069582188 -0.008653681 0.016629506 0.004104571 0.0016623968 0.0017011202 0.0037819634 0.007811572
-0.006631816 -0.020883571 0.006864443 0.008532374 0.0041692583 0.026051886 0.0074795806 -0.019473014
-0.009446 0.019684484 -0.007902753 -0.0146881 -0.0042908825 0.014839944 -0.0003463262 -0.0046590683
-0.006760038 -0.0025251247 0.0150128165 -0.010687374 -0.0025349106 -0.001960313 0.0027839597 -0.0024999585
0.0046444484 -0.0022770292 -0.008669663 -0.0064563886 -0.0064165653 0.0028396558 1.2370296e-05 -0.006903707
0.006691056 0.0074672895 0.0129405465 -0.008067321 0.00071203127 0.0011309887 0.020100104 0.013128371
-0.0002681114 -0.0029225822 0.010918092 0.00046462897 -0.0032802285 0.006593698 0.0041538985 -0.0110256
-0.00032092628 0.0032857743 -0.0029066536 0.0010790905 0.0038529423 0.008985867 -0.009076183 -0.0036985446

fc1.bias f4 [32]
00000000: d0e8 9e3d a99a 663d b6b6 df3c 04a9 39bc
00000010: 9d70 193b 27ae 853d 013e 43be 9dbf 3abc
00000020: 05da 2f3d 6f7e 4a3e 71c4 ffbd 992d 483e
00000030: 4700 3d3e afa8 7fbc ae60 683d c934 66be
00000040: 5721 c03c 507e 1dbd aa0a 58bc 183e a4bc
00000050: 9d23 063d 272c e5bd f755 58bd 0ca6 2ebe
00000060: 739c 713d e33a d53d 042f e23d 5671 1d3d
00000070: 8d5d 1b3d 551e 293e f57e ab3c 4e05 98bc
0.07759249 0.05629984 0.027308803 -0.0113318 0.002341307 0.065273575 -0.19066621 -0.011398223
0.04293253 0.19774793 -0.1248864 0.19548644 0.18457137 -0.015604182 0.056732826 -0.22481073
0.023453398 -0.03845054 -0.013186136 -0.02004914 0.032748807 -0.11190062 -0.052816357 -0.1705553
0.058987092 0.104116224 0.11044124 0.038438164 0.037931014 0.16515477 0.020934561 -0.018557217

fc2.weight f4 [4, 32]
00000000: 2341 5cbe 974a 3dbe 56d5 11be 5b2d f43c
00000010: 790f 353e a38b 3a3e d41c e4be 6b42 aebd
00000020: 07eb af3d 10d4 293e c2ab e5bd e839 e33e
00000030: 3aed 903e 1c22 e33d c1d0 18be ebbb 2fbe
00000040: 21a5 48bd 0e4c c03c b20a c8bd 81c8 303d
00000050: c72e a0bd 96b8 9cbe 62c4 02be 871e 843e
00000060: f3a7 93be 9d81 a6bc c4bb 853c 93c8 ed3d
00000070: 2d2d 59bd 894b e03c a687 d33c 9935 cdbe
00000080: 71f1 c1be a9ff f63d 5a25 a33d 1fbc b5bc
00000090: 70c0 033e dde2 f7bd 200d 593e 2cc2 7e3c
000000a0: 1de1 fabd 2bd7 d3bd 6fd1 523e 4a3d edbd
000000b0: fed0 2cbd ae41 56bc dbf9 bb3d 9830 4f3e
000000c0: fd34 ef3d 919b 4c3d 2279 acbc a30a 9bbd
000000d0: 8049 293d 9e4b 813e 150f 0d3e c387 133f
000000e0: 6c23 43be 58c2 c93d 180d 4ebd 1a2d 063c
000000f0: a8fb ec3d 7229 6dbe 44ca 30bd 437a 4e3e
00000100: 8655 133e 5305 9bbe 59ba 96be bab9 d33d
00000110: a937 ae3e 2320 f73d 356b 24bf 0a7a 91bd
00000120: 50a6 383e 9140 103f 7571 02be cf64 88be
00000130: 6063 dc3e 718d 983e 5f9a 81be 5a3a f0be
00000140: b502 bbbe 1107 fd3e d814 38be 7a21 bc3e
00000150: 1ec3 47be 87ef 96be f177 a5be 0f4f 4e3e
00000160: 3d0b 9e3e ed01 a8be c3a2 323e 6171 abbd
00000170: 170e 013e 427e c5be 0de3 78bd cbda b7bd
00000180: 097c fbba 7e5b 4f3e f913 1d3e 07a0 04bd
00000190: c6f8 c43e 2088 2cbe 7254 203d 1296 45be
000001a0: a909 1abe d11b 74be aa3d aa3e 64f0 c73e
000001b0: ebd6 c8bd d827 c8bd bd6f 253e 97b5 ca3d
000001c0: 513a 943c c069 b33d 0501 83bc b5b3 0c3e
000001d0: 443c be3d 0f80 4b3b 5129 df3d f903 07be
000001e0: 4dbf e33e d18f d63d 2c4b 9a3e f198 c6bd
000001f0: 75ef 823e b226 8ebd 4303 cdbd 6523 6f3d
-0.21509223 -0.18485485 -0.14241537 0.029806783 0.17681684 0.1821733 -0.44553244 -0.08508762
0.0858975 0.16584802 -0.11214401 0.44380116 0.2830599 0.1109049 -0.14923383 -0.17161529
-0.048985604 0.023473766 -0.09767665 0.043159965 -0.07821422 -0.30609578 -0.12770227 0.2580454
-0.28839073 -0.020325476 0.016324885 0.11610522 -0.0530216 0.027379768 0.025821518 -0.40079954
-0.37879518 0.12060482 0.079661086 -0.02218443 0.12866378 -0.121038176 0.21196413 0.015549224
-0.12249968 -0.103437744 0.20587705 -0.115839556 -0.042191498 -0.013077183 0.091785155 0.20233381
0.116800286 0.049953047 -0.021053854 -0.07570388 0.04132986 0.25253004 0.13775285 0.5762903
-0.19056481 0.09851521 -0.050305456 0.008189464 0.11571437 -0.23160341 -0.043161646 0.20163827
0.14388093 -0.302775 -0.29439047 0.10338159 0.3402684 0.120666765 -0.64226085 -0.07103355
0.18032193 0.5634852 -0.12738593 -0.2663941 0.43044567 0.2979541 -0.25313088 -0.4691952
-0.36525503 0.49419454 -0.17976701 0.3674429 -0.19508025 -0.2947962 -0.3231807 0.20147346
0.3086795 -0.3281397 0.17444901 -0.08371235 0.12603031 -0.3857289 -0.060763407 -0.08977278
-0.0019186746 0.20249745 0.1533965 -0.032379176 0.3847105 -0.16848803 0.039143033 -0.19295529
-0.15042748 -0.23838736 0.3325017 0.3905059 -0.09806617 -0.097732246 0.16155906 0.09897917
0.018094214 0.087604046 -0.015991697 0.13740428 0.092888385 0.003105167 0.10896552 -0.13185109
0.44481888 0.104766496 0.30135477 -0.0969714 0.25573316 -0.06940974 -0.10010388 0.058383364

fc2.bias f4 [4]
00000000: 23cb aabe 68f6 d53e 21d8 a4be 1458 903c
-0.33358106 0.41789556 -0.32196143 0.017620124
