model_weights/G030_c32_best.pth (torch, 173449 bytes, 9 tensors)

conv1.weight f4 [32, 2, 3, 3]
000000 4d 07 bb 3c a5 7d eb bc a8 8a 34 3e 9a 6c 6d 3d
       0.02283063 -0.028746435 0.17631018 0.0579649
000010 2b ed 2e 3e 78 54 04 bc 0a 25 7d 3d 6f 44 97 bd
       0.1708266 -0.00807678 0.0618029 -0.073860995
000020 6a b1 99 3d bd 8b 23 be 1f 95 5f be ac 23 b9 bd
       0.07504542 -0.15971275 -0.21834229 -0.09040007
000030 5b b5 fc bd bc dd f9 bd 13 77 da bd 02 aa d2 bc
       -0.12339278 -0.122004956 -0.10667243 -0.025715832
000040 3e 2f 99 bd fe 11 48 bc f2 a2 17 bd 51 9a e5 3d
       -0.07479714 -0.012211321 -0.03702063 0.11211074
000050 24 03 cf 3d 71 8c 4c be af a7 b8 3d 7d 67 bd bc
       0.10108021 -0.19975449 0.09016358 -0.023120636
000060 7a 72 cc bd 95 dc 17 3c f8 5f a7 3c 21 b7 0c 3b
       -0.09982772 0.009268899 0.020431504 0.0021471458
000070 9c d5 d4 bd f1 45 16 bc dd 12 24 be 6b aa d8 bc
       -0.10392305 -0.009171949 -0.16022821 -0.02644845
000080 9b e3 98 bd ee 40 23 be 49 53 2e be 17 e9 70 bd
       -0.07465287 -0.15942737 -0.17023958 -0.05881604
000090 ad e4 76 3d 4c b5 6b 3d 6c 6a 8a bc 39 da 9d bd
       0.060276676 0.057545945 -0.016896449 -0.07707638
0000a0 82 df f9 bd 12 0e d1 bc ab cd b6 bd ce 4c c8 bc
       -0.12200834 -0.025519405 -0.08925947 -0.024450686
0000b0 28 5a c2 3d 20 c4 7d 3d e9 62 34 3d cf 8c 23 bd
       0.09489852 0.061954618 0.04403964 -0.039929207
0000c0 60 fe 2f bc ef e0 85 bc f1 ee 06 3d 17 b5 1d 3c
       -0.0107418 -0.016342608 0.032942716 0.009625695
0000d0 d2 c3 eb ba de 5c 51 be 8a 18 40 3d 3c 1a 94 bd
       -0.0017987436 -0.20445582 0.046898402 -0.07231566
0000e0 8e 85 b8 3d f8 c0 12 be 59 62 08 bd a9 06 0d bc
       0.090098485 -0.14331424 -0.033296917 -0.008607545
0000f0 28 31 1b bd 37 dd 7b bc 57 a1 3e bd 89 ef cb bd
       -0.037888676 -0.015372566 -0.046540584 -0.09957797
000100 87 68 75 3d 79 dc 40 3d 18 0c d5 bc ce f0 0f 3e
       0.05991414 0.04708526 -0.026006743 0.14056703
000110 f5 cd 02 3e d1 18 e7 3b 24 7c e7 bc 07 02 75 bd
       0.12773879 0.007052519 -0.028257437 -0.059816387
000120 25 ae 34 be d3 02 34 bd 27 d5 b7 bd aa f7 78 bb
       -0.17644556 -0.043948006 -0.089762025 -0.0037989416
000130 e1 1a a4 bd 5a c7 fa 3d ec b9 f8 bc bd 38 47 be
       -0.08012939 0.122450545 -0.030362092 -0.19455238
000140 5a 80 ec ba 83 1c bd 3d 93 ec 38 3d 0a 1f e3 3d
       -0.0018043623 0.09233954 0.04514749 0.110899046
000150 b8 cd 34 3d e6 74 5d bd 71 8d a9 3d bd bc af 3d
       0.0441415 -0.05406656 0.08278931 0.08580921
000160 c9 04 2e 3c 8c 87 36 bd cb 8b ae bc 35 17 0e 3d
       0.010621258 -0.04456286 -0.021306893 0.0346901
000170 6f 94 a8 bd 08 53 12 be f0 53 ac 3d a2 66 9f bc
       -0.082314365 -0.14289486 0.08414447 -0.019458119
000180 33 83 e4 bd 0a 91 bd bd a0 fb ba 3d f3 b7 e2 bc
       -0.11157837 -0.0925618 0.09130025 -0.027675604
000190 a7 d1 44 be 85 45 5a bd bb 53 52 bd cd 44 7d 3c
       -0.19220601 -0.053288955 -0.051349383 0.015458298
0001a0 e4 e7 4f 3d 9b e0 f1 b9 74 e5 28 3d f3 c9 d0 3d
       0.050758258 -0.00046134446 0.04123445 0.10194769
0001b0 95 bc 6f 3b 9d fe 23 be ac cd 2d 3c 43 b7 e9 bd
       0.003658091 -0.16015096 0.010608118 -0.114119075
0001c0 a0 7b d9 3d 64 71 79 3d 7b 51 bb bd d6 0f cc bc
       0.10619283 0.060899153 -0.091464005 -0.024909895
0001d0 d5 55 f6 bd b9 4c a7 bd b4 f2 82 3c de c0 26 be
       -0.1202809 -0.081689306 0.01598487 -0.1628451
0001e0 5f d0 2c be 50 b9 22 bd ec 4a 3d bd b6 65 3a bd
       -0.16876362 -0.03972751 -0.04621403 -0.045507155
0001f0 41 16 f6 bd 4c 25 b4 bb 62 a7 31 be c4 80 59 bd
       -0.12015963 -0.00549761 -0.17349008 -0.053101316
000200 81 99 90 3c 1c 75 d3 3d 5c d6 6e 3d b3 6f 31 3d
       0.017651321 0.10325071 0.058309898 0.043319415
000210 02 8d 42 bc ca a7 61 3d c6 b3 a6 3d e4 52 33 3e
       -0.011874439 0.055091657 0.08139758 0.17512089
000220 69 4a 18 3e b5 4a 43 3e ff 23 35 3e 29 3d 18 3c
       0.14872135 0.19071467 0.17689513 0.0092919255
000230 b4 06 22 3d 48 45 64 bd 64 bc 51 3d 62 ba 7b 3e
       0.039557174 -0.055730134 0.051205054 0.24582818
000240 13 27 0b bd 9f 87 0a 3e e4 98 90 bd f6 ab 2b bd
       -0.03397281 0.13528298 -0.070604116 -0.04191204
000250 a6 bc 05 3d 66 d0 11 bd 27 70 00 bd bc bd 94 bd
       0.032650612 -0.035599135 -0.031356957 -0.072627515
000260 9c 5b ef bd 07 d4 ac 3c 02 48 9d 3d 33 4c 1c 3d
       -0.11687395 0.021097196 0.0767975 0.038158607
000270 65 ca eb bd 89 b8 32 bd 17 62 3b be 44 18 9b 3d
       -0.11513213 -0.043633018 -0.18299137 0.07572988
000280 82 31 0c bd 55 15 8f bd 9f b4 d1 3d 7e f0 ef 3c
       -0.0342269 -0.06986491 0.10239529 0.02928948
000290 34 40 41 bc 4b b0 ff bd c8 af 91 bd d5 c3 1c 3d
       -0.011795092 -0.12484797 -0.07113606 0.038272697
0002a0 61 e9 8a bd 36 5a 8b 3c a6 9c f2 bd 82 6a 40 be
       -0.06782795 0.01701079 -0.118462846 -0.1879063
0002b0 df bf b1 3d a6 ed d0 3d 77 51 da 3d 9b 2e e7 3d
       0.08679175 0.10201578 0.106600694 0.11288186
0002c0 d1 68 63 bd 1b cc 10 3d 9a 04 17 be 09 f0 df 3b
       -0.055519883 0.0353509 -0.14747849 0.0068340343
0002d0 e5 8d e9 3d a2 9c 4e bd 50 89 05 3d a0 11 a7 bd
       0.11404017 -0.050442345 0.032601655 -0.081576586
0002e0 9a 5c a1 bc c9 be 57 bd da 05 4f bc 2d 8c 8f bd
       -0.019697476 -0.05267218 -0.012635672 -0.07009158
0002f0 6c fa 3f be 4c 67 75 3e 34 85 b8 3d 6a 00 1d 3d
       -0.18747872 0.23965186 0.090097815 0.038330473
000300 29 43 45 3e c9 01 07 3e 73 11 be 3d 22 46 db 3d
       0.19263901 0.13184275 0.09280672 0.10706736
000310 bf d1 b4 bd cc 7b 15 bd 52 d1 60 bd f9 74 7d bc
       -0.088290684 -0.036495015 -0.054887123 -0.015469783
000320 5e 50 fd bd ae 86 46 3d 56 6b 35 3a 73 1d c9 3c
       -0.123688444 0.048468284 0.00069205964 0.024550175
000330 4f ee 5e 3d 71 c6 f0 3d 56 22 b6 3c da 9d 12 3e
       0.054426488 0.117566 0.02223317 0.14318028
000340 1a d0 50 3d a4 e3 a5 3d 12 8e 23 3d f0 58 de 3d
       0.05097971 0.0810006 0.03993041 0.10856807
000350 be d1 8c 3d e0 fe 37 bc 24 bf c0 bc 20 0b b3 bd
       0.06875943 -0.0112302005 -0.023528643 -0.08742356
000360 84 69 54 3c 3c fe 21 3d 52 4f 2b 3e c9 45 48 be
       0.01296461 0.039549097 0.16729477 -0.19557871
000370 92 5e 31 3c 50 f8 7c 3e d2 6b 15 3d 91 b9 f4 3d
       0.01082577 0.24704099 0.03647978 0.119494565
000380 ad 59 3b 3e 0b 33 d5 bd e9 b0 22 be e2 4d f6 bc
       0.18295927 -0.10410126 -0.15887798 -0.030066434
000390 70 75 28 be 27 98 20 bd 4d 86 f7 bd 71 d3 78 be
       -0.16451049 -0.039207604 -0.12086163 -0.24299408
0003a0 8a 7a 51 bd 10 ac 77 bd 6b c1 14 3c 67 b8 47 3d
       -0.051142253 -0.060466826 0.009079318 0.048759844
0003b0 e0 70 1e bc e0 11 ae bd e8 cc 80 3d 50 0b 72 bd
       -0.009670466 -0.08499503 0.06289083 -0.05909282
0003c0 30 00 52 3e 75 b9 d2 bd 86 b5 81 3c 49 bb 26 3e
       0.20507884 -0.10289279 0.015833627 0.16282381
0003d0 f5 e6 b7 3c 47 fa e9 3d 19 c1 a6 3e 32 c3 2d 3e
       0.022448996 0.1142469 0.32569197 0.16968992
0003e0 f5 66 2f 3e 0b 4a b0 3d 38 5d 44 3e 90 c1 8b 3e
       0.17129119 0.086078726 0.19176185 0.27296114
0003f0 92 71 8a bc f6 db 04 be 5a e9 01 bd ed 8a 87 3d
       -0.016899858 -0.12974533 -0.031716682 0.06618295

conv1.bias f4 [32]
000000 2a 64 10 be 65 09 ed ba c9 df e0 bc 9d e0 bc bc
       -0.1410071 -0.0018084465 -0.02745046 -0.023056323
000010 67 fd 28 3d 74 53 a1 bc 62 b6 95 b9 86 bf f8 bd
       0.04125729 -0.019693114 -0.0002855538 -0.12145905
000020 5c 9d 40 b8 ce 25 4b bc a6 d3 bd ba 68 6b 71 bd
       -4.592292e-05 -0.01239915 -0.0014482632 -0.05894032
000030 b7 af 9a bd 04 21 bd bd a4 2f 76 bd 8d c1 3b bd
       -0.07553046 -0.09234813 -0.060104027 -0.04583888
000040 50 8c 85 bb 3f 9c 2d bc f8 fc f6 bc 83 c3 74 bc
       -0.0040755644 -0.010596334 -0.030149922 -0.014939192
000050 7e 7c d3 3c 9f af 28 ba bf e4 1e bd 2c 70 24 bb
       0.025816198 -0.0006434861 -0.038792368 -0.0025091274
000060 f3 5a dc bb 32 2c 4f bb be ea 88 bd 50 dc 8f bc
       -0.006724709 -0.0031612036 -0.066853985 -0.017561108
000070 bd d6 29 3c bc 50 33 3d c1 59 66 bc 00 03 06 bb
       0.010366139 0.043778166 -0.014059485 -0.0020448565

conv2.weight f4 [32, 32, 3, 3]
000000 42 0b 39 3d b0 68 ec bd 52 2f 3c bd ed 91 ee 3b
       0.045176752 -0.11543405 -0.045943566 0.0072805793
000010 0c 1c 71 bd 0a db 4b be 99 3e 92 3d f8 6e 8b bd
       -0.05886464 -0.19907776 0.07140846 -0.06808275
000020 e8 c5 12 3d 58 ae ba bb f5 4f e7 3c 85 2e 64 3d
       0.03583327 -0.005697053 0.028236369 0.055708427
000030 dc 73 b9 bd 3f 48 e5 bc 5b 7c d1 3b 5d ce 05 3e
       -0.090553015 -0.027988551 0.006392998 0.13067003
000040 2d 12 36 be 19 8f e1 3b 48 80 73 3d 6d 94 14 3c
       -0.17780371 0.0068835136 0.05944851 0.009068591
000050 48 be 1a 3e b3 40 ad bd e1 da 5d 3c bc d8 b7 3d
       0.15111649 -0.08459606 0.013540954 0.08976886
000060 66 62 3c bd 63 e3 00 3d 64 f6 f7 3d c1 92 c0 3c
       -0.045992278 0.031466853 0.12107542 0.023507478
000070 df a6 8f bd 6d b6 1f bd 5c 54 99 bd 43 07 fc 3d
       -0.0701425 -0.038992334 -0.074867934 0.123060726
000080 81 db 7c bc 98 5a 51 bd 31 8f 7f 3c 7e 8d 38 3d
       -0.015433193 -0.051111788 0.015598104 0.045056812
000090 c4 23 c8 3d b2 c3 b8 bd 06 b9 00 3e 77 81 ae bd
       0.09772447 -0.09021701 0.12570581 -0.08520787
0000a0 78 1c d1 3d b3 be a1 3d 95 9a f7 bc b7 45 f7 bc
       0.10210508 0.07897701 -0.030225078 -0.03018461
0000b0 a2 f8 1e 3c d6 89 40 3d 56 1b 53 3c 18 77 9a bd
       0.009702833 0.04700645 0.012884935 -0.075422466
0000c0 5e 3e a4 bb 7a 06 e1 bd 2a 04 9f bc 3f 97 18 bd
       -0.0050123176 -0.109875634 -0.019411165 -0.037253615
0000d0 31 f8 cb bd f1 f8 a5 bc 1a 39 8a bd 6f 34 0b 3e
       -0.09959448 -0.020260306 -0.067491725 0.1359422
0000e0 30 4f 39 bd e3 00 95 bd 3b 1e 9e bd ec a9 07 bd
       -0.045241535 -0.0727556 -0.0772061 -0.033121035
0000f0 cc 97 a3 3d 86 5b 03 3d 2b 15 15 3e e1 e9 e1 bc
       0.07987937 0.032069705 0.14558856 -0.027577342
000100 76 32 32 bd 9b 35 97 bd 42 12 c6 bd 2f b4 cf bb
       -0.043505155 -0.07383271 -0.09671451 -0.006338618
000110 3f b9 9d 3d b6 75 a6 3b da c0 b3 bb be 24 99 bd
       0.077013485 0.00507995 -0.005485636 -0.07477711
000120 d7 e3 fe bc 09 a4 1a bd 14 f6 a8 bd 02 bf ca 3d
       -0.031114502 -0.037754092 -0.08250061 0.09899713
000130 5c 69 23 bd 29 3c 2e bd e9 c1 52 bb 8c ef df 3d
       -0.0398954 -0.042537842 -0.0032159036 0.10934362
000140 59 f1 a3 bd 8f 6f 18 3e 0f 29 24 bd 56 ca 14 bc
       -0.08005018 0.14886306 -0.04007822 -0.009081444
000150 18 f0 89 bd 0d 0a 11 bd 1e 83 51 3b b3 be 8e 3d
       -0.067352474 -0.035409976 0.003196902 0.06969967
000160 fb 3f 98 bd 8f e7 8a bd 52 4a b2 3d c7 f5 0f bd
       -0.07434078 -0.067824475 0.08705582 -0.0351465
000170 f5 26 81 3d dc d5 a8 3d 26 3c b9 bb 44 03 06 3e
       0.063062586 0.082439154 -0.005652922 0.13087183
000180 31 67 1d 3d d5 5b cd 3c b9 54 d8 3d de 42 79 3d
       0.03842849 0.025068203 0.105630346 0.060854785
000190 f9 9b 36 3d 70 86 68 3c b3 dc 82 3d f1 45 80 bd
       0.04458234 0.014192209 0.06389751 -0.0626334
0001a0 b9 59 05 3d 5f fb f7 bd d7 1a bd 3d eb c0 3d bd
       0.03255627 -0.12108492 0.09233635 -0.04632656
0001b0 d2 65 31 3e 74 27 e9 bd 4d de 8f bd 2e b4 9a 3d
       0.17323998 -0.11384478 -0.070248224 0.07553898
0001c0 b6 ad 30 bb ae 85 77 bd 84 b6 4d 3d 3f 59 0b be
       -0.0026959009 -0.06043022 0.05022289 -0.13608263
0001d0 cc bf e8 3d 07 c7 0f 3d 59 76 d4 bd d6 e4 05 3c
       0.11364707 0.035101917 -0.103741355 0.0081722345
0001e0 83 f4 a9 3d 29 f0 85 3c d0 d3 b7 bc 82 c4 55 bd
       0.0829859 0.016349869 -0.022439867 -0.052189358
0001f0 1e db 2d be 54 08 d9 3c 94 09 89 bd 37 96 e0 bc
       -0.16978118 0.026493229 -0.0669128 -0.027415378
000200 83 08 0e be c1 20 90 3c ea be 78 bd b2 56 d7 3c
       -0.13870434 0.017593743 -0.060728945 0.026286457
000210 a6 a9 26 3d 26 9c 0c 3d ab 95 fc bc 12 54 0d 3e
       0.040689133 0.034328602 -0.030833086 0.13801602
000220 22 c2 c8 3d 59 77 60 3c 74 e5 8b bc 5a 4f d7 3c
       0.09802653 0.01370033 -0.017077185 0.026282955
000230 38 d7 b7 3b 5c c3 b1 bd 32 6d 03 3c cf dd 84 bd
       0.005610373 -0.0867984 0.00802164 -0.06487619
000240 89 bc 14 be 62 d8 c5 bd 90 3e c1 3d 0c fb 90 3b
       -0.14525045 -0.09660412 0.09435761 0.0044244584
000250 08 11 30 3d d1 99 e1 3c 5a ff 02 3e a0 8e 2c 3e
       0.042984992 0.027539166 0.12792721 0.16851282
000260 ee ee 1a bc c1 67 10 3e 2c 35 a8 bc cf 40 c7 bd
       -0.009456379 0.14102079 -0.020533167 -0.09729158
000270 af 85 ef bd 81 12 0c 3b 30 f0 9a bc 91 52 36 3c
       -0.1169542 0.0021373334 -0.018913358 0.011128084
000280 87 d6 94 bd 80 d0 3a be 12 a8 5f 3d 48 99 86 bc
       -0.0726748 -0.18243599 0.054603644 -0.016430512
000290 d9 78 14 3e a1 35 4e 3c 35 ab 85 3d 19 88 2b bc
       0.14499225 0.012586028 0.06526796 -0.01046946
0002a0 fd 64 22 3e f5 f6 44 be 41 96 a4 3c 80 3f e2 bd
       0.15858836 -0.19234832 0.020091178 -0.11047268
0002b0 9e e3 53 bc 5d dd 87 bb 50 db 1d 3d 21 bc 94 bd
       -0.012932686 -0.0041462616 0.03853923 -0.07262445
0002c0 fa ae 89 bd db c1 e7 bc 2e 17 10 bd c2 f1 4b 3d
       -0.06722827 -0.02829068 -0.035178356 0.049791105
0002d0 ee c1 e7 3b 69 8a 0c be a7 5f 83 bd 0b d7 c9 bd
       0.0070726788 -0.13724674 -0.064147286 -0.09855469
0002e0 ee 1a 02 3d d6 b0 7b bd 14 bc a9 3d 34 dc c8 bd
       0.031763963 -0.06144794 0.08287826 -0.098076254
0002f0 5b 1d 08 3e 15 c2 12 3d e7 a6 f4 bc b4 a6 56 ba
       0.13292448 0.035829622 -0.029864741 -0.0008188293
000300 c8 85 3a bd 66 53 ba bd c1 12 7c 3b 10 32 3c bd
       -0.04553774 -0.09097938 0.0038463327 -0.04594618
000310 94 b3 eb 3d 33 7a 83 3d 97 14 63 3c e3 db e4 bc
       0.11508861 0.06419792 0.0138598895 -0.027936881
000320 72 f3 58 bc 62 19 10 3d 74 cb ab bc 73 ae e7 ba
       -0.013241636 0.035180457 -0.020971037 -0.0017675891
000330 8b 79 74 bd 47 f6 b8 3d cf b7 00 be 96 17 15 3e
       -0.059686225 0.09031349 -0.12570117 0.14559779
000340 1c 8c ec bc 97 81 0e 3e fa bf 21 3d ba b0 78 bd
       -0.028875403 0.13916622 0.039489724 -0.060715415
000350 b6 db 8e bd 6a 27 da bd f4 26 2b bd 56 c1 42 bd
       -0.069755 -0.10652049 -0.041785195 -0.04754766
000360 f2 33 63 3c 28 73 bb 3d 79 aa a4 3d 8e 96 ab 3d
       0.013867365 0.09152824 0.080403276 0.083783254
000370 13 50 0d bd 05 0b 7d bb f8 de 2c bb 65 ad a2 3d
       -0.034500193 -0.0038611304 -0.0026378017 0.07943229
000380 cd 0d 11 3c 1f ad c5 bd b7 e8 c4 3d 70 e0 c5 bd
       0.008853388 -0.09652161 0.09614699 -0.09661949
000390 c8 22 76 3d 7b 13 24 3e 8d e2 b5 3d 91 af 9c bc
       0.060091764 0.16023056 0.08881102 -0.019126685
0003a0 9f 84 05 3d 12 38 0b 3d 11 31 06 3e ea 6d c9 3d
       0.03259718 0.03398902 0.13104655 0.098354176
0003b0 1f f0 a5 bc 40 ad 9e 3c 5c 27 41 bd 0f b7 0b bc
       -0.0202561 0.019369721 -0.047156677 -0.008527531
0003c0 f7 ef 2c bd 81 7a 5d 3d 85 32 87 bd 5e fa 60 3e
       -0.042221036 0.054071907 -0.06601433 0.21970508
0003d0 a1 16 08 3e 32 13 d1 3d 31 1e 15 3e 94 97 e2 3b
       0.13289882 0.10208739 0.14562298 0.006915042
0003e0 c2 d7 27 3e b6 53 b0 bb 43 d8 b3 3c 5d 31 5e bd
       0.16390899 -0.005381073 0.021953708 -0.054246295
0003f0 56 fc 06 bd 5b a2 2f 3c b4 96 8f 3d 86 3c a0 bd
       -0.03295549 0.010719861 0.07011166 -0.07824044

conv2.bias f4 [32]
000000 bb 5f c6 3c d7 4f 5a be d3 4f e7 bc 51 64 17 3b
       0.02421557 -0.21319519 -0.028236305 0.0023100565
000010 f4 6d 17 bd 73 f7 24 bd b4 b0 f6 3c fa aa 8e bb
       -0.036970094 -0.04027505 0.030113555 -0.004353878
000020 23 1a eb bb ab b9 4b bd be 26 5a bd 5e ee db bd
       -0.0071747466 -0.049737614 -0.053259604 -0.10738824
000030 74 4a 6e bc 95 9b 48 bc 12 53 0d be 8f e6 1c bc
       -0.014544118 -0.012244125 -0.1380122 -0.009576454
000040 57 41 90 bd 72 0d 5a bd 99 17 f1 bc 3e 6e b9 bd
       -0.070437126 -0.05323548 -0.029430198 -0.0905423
000050 5d a8 a2 bb d3 45 29 bc 6a 51 c3 3b e5 89 68 bd
       -0.004963918 -0.010331589 0.005960633 -0.05677213
000060 d6 2c 45 bb d9 4d 00 3d 9d e7 3b bc 97 db 0a bd
       -0.0030086539 0.03132424 -0.011468795 -0.033900823
000070 ac 05 11 bd 14 54 e5 bc cf 61 fe 3c d4 35 f1 bc
       -0.0354058 -0.027994193 0.031052498 -0.029444613

conv3.weight f4 [1, 32, 3, 3]
000000 00 53 c1 3c b1 a8 66 bf c7 93 32 3f 7b 86 ae be
       0.023599148 -0.9010115 0.6975674 -0.34086975
000010 33 2d 80 3f e9 66 30 3e 79 fc 52 be 31 05 ee bd
       1.0013794 0.17226757 -0.20604123 -0.11622084
000020 0f d2 a8 bc f8 09 ae bd 04 86 55 bf 5a cc 67 3e
       -0.020607976 -0.08497995 -0.83407617 0.22636548
000030 bc b6 6d bf 52 55 c3 be 6a 9a 39 bf c0 3f 11 3f
       -0.92856956 -0.38151032 -0.7250124 0.567379
000040 78 a0 31 3f 66 4b 5a be 34 04 57 bd 81 95 c2 3e
       0.6938548 -0.21317825 -0.052494243 0.38004687
000050 5f 1d 7a be e3 8b 38 3f 2e 48 99 3e 4c b2 db 3e
       -0.24425267 0.7208845 0.2993788 0.42909467
000060 40 60 6c 3c bb 45 98 be 86 f8 8e bc 25 3a 34 3e
       0.014427245 -0.297407 -0.01745249 0.17600305
000070 c8 78 02 bf 2d 53 43 3f b6 bf 96 3f 33 a1 13 bf
       -0.5096555 0.7629879 1.1777256 -0.57667845
000080 e4 2c 46 3e d2 3e fb 3e 87 05 cc bd 23 04 1e be
       0.19353062 0.49071366 -0.09961992 -0.15431266
000090 89 0e 0c bf bf 4e 8e 3f 87 07 6d 3e 00 9e 8a bc
       -0.5470968 1.1117781 0.23147403 -0.016921043
0000a0 1e 07 52 3f 08 f7 7d bd 77 f7 85 be 33 9b 4c bf
       0.8204211 -0.062003165 -0.26165363 -0.79924315
0000b0 ea 29 ab 3e 60 e8 57 bd 8c 7d cb 3e 73 aa 92 bf
       0.33430415 -0.052711844 0.39744222 -1.1458267
0000c0 31 28 0a bf dd b5 61 3f 70 5f 79 3e e6 42 13 be
       -0.5396758 0.88168126 0.24352813 -0.14380988
0000d0 52 2e a2 bf cb 19 cd 3e dd 61 1a 3e a0 b9 18 3f
       -1.2670386 0.4005874 0.15076394 0.5965824
0000e0 b5 b0 83 3f 2c 59 90 be 8a c3 5b bf 1c 04 ae 3d
       1.0288302 -0.28193033 -0.85845244 0.084968776
0000f0 07 22 8b be f5 7d 0e 3f 5c c0 3d bd 8c 11 4b bf
       -0.27174398 0.55660945 -0.046326026 -0.7932365
000100 1e b2 3a be 73 b4 04 3f d1 72 4d be 91 81 1d 3e
       -0.18232009 0.51837844 -0.2006333 0.15381457
000110 b6 ea 77 be 8e 7f 11 bd bc 01 45 bc 25 3d f4 be
       -0.24210629 -0.035522036 -0.012024339 -0.477029
000120 c2 df cd be 5f fc e6 3e f0 37 db be cf 2b e3 bd
       -0.40209776 0.4511442 -0.42816114 -0.1109234
000130 f5 28 87 3e 49 90 5b 3e f0 0a 46 be 2d fb af bd
       0.26398435 0.21441759 -0.1934011 -0.0859283
000140 80 3d 9c bd 4b de 07 3e 15 5d 16 bf a5 d5 c1 3e
       -0.07628918 0.13268392 -0.5873578 0.3785831
000150 34 25 58 3f 8d 28 ad be 30 1f 53 3f fb 7a ee bd
       0.8443177 -0.3382 0.82469463 -0.116445504
000160 4d 07 dd be 85 eb 98 bd 62 57 b4 be 46 5b 0d bf
       -0.43169633 -0.07466797 -0.35222918 -0.552174
000170 e1 8c 2d 3e 90 ba b4 3d 29 e2 31 3e de a6 26 bf
       0.16948272 0.088246465 0.1737143 -0.6509837
000180 65 dd a4 be cd 99 2b be ff 8c 0b bf c7 a6 28 be
       -0.3220016 -0.16757889 -0.5451202 -0.1646987
000190 50 cc 8f bc 05 74 37 be c6 ed cf 3e 25 50 74 3e
       -0.017553478 -0.17915352 0.40611094 0.23858698
0001a0 64 59 73 bf 37 35 01 bf 2d e9 87 3f ab 0a d7 3e
       -0.95058274 -0.50471824 1.0618035 0.42000327
0001b0 dc 29 03 be 72 60 39 be fc 43 30 3e 46 11 14 3f
       -0.12808937 -0.18103197 0.17213434 0.5783886
0001c0 b8 c6 86 3e 75 99 84 be 41 d8 07 bf 3f d2 35 3f
       0.26323485 -0.25898328 -0.5306435 0.71023935
0001d0 f6 f6 65 bf 01 1f 89 be db d6 3a bd 66 50 3e 3f
       -0.8982996 -0.26781467 -0.04561506 0.7434143
0001e0 5c 61 2f be 71 27 17 3f b4 f9 70 bd 71 01 09 3f
       -0.17126983 0.5904456 -0.058831885 0.53517824
0001f0 40 4e 89 3d 20 03 4b 3e 9c 29 b2 be eb ad dd 3e
       0.06704378 0.19825411 -0.3479737 0.4329675
000200 98 e6 c5 be 99 ab a3 3e 5c cb 82 3e 7d e9 9e 3c
       -0.38652492 0.31966856 0.25545776 0.019398445
000210 c9 f0 56 3f bd c1 38 3e 85 a2 dd 3e 43 b5 5b 3f
       0.8396116 0.18042655 0.43288055 0.8582346
000220 b5 5c 6b 3e d7 98 32 3f 13 55 e2 bd e8 eb f1 3e
       0.22984584 0.69764465 -0.11051383 0.47250295
000230 ea c0 14 3f 8e 76 5c 3c 3d 64 87 3e dc ba 3c be
       0.58106863 0.013456 0.26443663 -0.18430656
000240 63 a2 27 bf 19 4a 17 bf 2d ed 20 bf 73 e7 86 bf
       -0.6548216 -0.5909744 -0.628619 -1.0539383
000250 aa db 9c 3d 5b 3d 64 bf 19 b4 10 3e d7 9e 5e bd
       0.07659085 -0.8915612 0.14131202 -0.0543507
000260 d2 43 8c be 12 66 3b 3e ff 0a f8 3e f3 51 1a bf
       -0.27395493 0.18300655 0.4844589 -0.60281295
000270 3a 0c 71 3f 3e bd 0a bf b1 7e 63 3f e3 29 29 bd
       0.9415928 -0.5419501 0.8886519 -0.041299712
000280 51 3a 15 be 6a cd 83 be f1 1c 48 3e af ed 9c 3e
       -0.14573027 -0.25742656 0.1954229 0.30650088
000290 16 8f 8a 3e e7 6a 40 bf 69 4c 1f 3e 05 f6 26 bf
       0.2706229 -0.7516312 0.15556492 -0.65219146
0002a0 66 1a 55 bd 42 e2 5b 3e 43 8f 94 3e d1 3c a7 3c
       -0.05202713 0.2147303 0.2901555 0.020414742
0002b0 f3 f5 af 3e 3a be 30 3e cd b1 e4 bc f1 53 8d 3e
       0.34367332 0.17260066 -0.027916813 0.27603105
0002c0 2e 8f e4 3e a3 a1 cb bc c4 da f7 bc c8 b1 97 3e
       0.44640487 -0.024857348 -0.030255683 0.29627824
0002d0 86 12 1e be 47 3d 63 3f 3d d9 8c bd a7 f7 de 3e
       -0.15436754 0.88765377 -0.068773724 0.4354832
0002e0 05 4b 39 bf bb 3f 33 3f 12 60 59 be 5b 22 00 bf
       -0.72380096 0.7001912 -0.21228054 -0.5005242
0002f0 11 af b4 3e c1 bd 9c 3e fb 73 d1 bd 3e 96 85 3e
       0.35289815 0.3061352 -0.102272 0.26091188
000300 34 f3 56 3f 04 b1 7c be d3 f1 5b 3f 79 29 9c 3d
       0.8396485 -0.24676901 0.8591587 0.07625098
000310 b8 df bb be 55 03 14 3d 34 34 d3 3e b6 14 92 3d
       -0.3669412 0.03613599 0.41250765 0.071328565
000320 a2 dd db 3e 32 03 d1 3e ef cc 3c bf 47 c0 cd be
       0.4294253 0.4082275 -0.73750204 -0.40185758
000330 ed 05 9c be 3c ad 5d 3f ff 42 03 3f 62 45 93 3e
       -0.3047327 0.8659246 0.512741 0.28763872
000340 4e a4 b3 3e dc f9 95 3d aa c1 3b 3f 6e ee 51 be
       0.35086292 0.073230475 0.7334238 -0.2050111
000350 87 c3 93 be 54 82 b3 3e f5 aa 6f bf e9 34 3e be
       -0.28860113 0.3506037 -0.93620235 -0.18574871
000360 89 ca 10 bf 16 11 f9 be a7 71 75 3f d5 8a 3d 3f
       -0.56559044 -0.48645848 0.95876545 0.74039966
000370 9e ea 45 bf 5a e5 be 3e f8 4e 2f 3e cd 68 72 3e
       -0.7731112 0.37284356 0.17119968 0.23672791
000380 00 fb 26 3f a0 72 a7 bd d3 52 4c 3e b2 41 af bc
       0.65226746 -0.0817616 0.1995347 -0.02139363
000390 65 db 33 3e e7 58 29 bc 33 4b 24 3e 6a d4 42 3e
       0.17564161 -0.010336137 0.16044311 0.19026342
0003a0 33 87 b5 3d 91 5e b0 3e b8 70 56 3d fd 63 11 be
       0.08863678 0.34447148 0.05235359 -0.14198299
0003b0 d6 e5 0b 3f 30 36 2a 3d 9c 91 e6 bb 0f be 6f 3e
       0.54647577 0.041555583 -0.007036401 0.23412345
0003c0 89 ca 31 3f 3c 27 76 be 75 1a a6 3e bf 62 75 3e
       0.6944967 -0.24038404 0.3244206 0.2396345
0003d0 80 65 82 3f 26 30 dc be 66 d0 d4 bd 33 43 35 3e
       1.0187225 -0.43005484 -0.10391311 0.17701416
0003e0 05 b7 d3 be 94 85 95 3d 8f a1 64 3e 43 83 76 3e
       -0.4135057 0.07300869 0.22327255 0.2407351
0003f0 e8 68 0e be 8f a7 66 3d bd 7b 94 bd c9 07 b2 bc
       -0.13907206 0.05631214 -0.07250164 -0.021732228

fc1.weight f4 [32, 1004]
000000 87 34 f3 bb 90 2e 1f 3b 8a 06 98 3b b0 a6 b4 bb
       -0.007422033 0.0024289228 0.0046394514 -0.0055130348
000010 56 9f dd bc ce 98 f2 3a a5 dd 69 3b 31 0a d2 bc
       -0.027053516 0.0018508674 0.003568509 -0.025639625
000020 8c bf fc bb 65 fc cc bc a8 0c 10 3b 66 2a 30 bc
       -0.007713264 -0.025022695 0.00219802 -0.010752296
000030 55 3f 37 bc f2 78 19 bc 6f 8a a0 3a cc df 51 3a
       -0.011184533 -0.0093672145 0.0012248288 0.00080060656
000040 fe da 4f bc 59 ab 59 bc 89 8d 40 3c 92 fd cb bb
       -0.012686489 -0.013285481 0.011752495 -0.0062252963
000050 bc 84 94 bb d1 43 9d 3a db 1e e2 bb 69 56 c1 3b
       -0.0045324247 0.001199836 -0.006900651 0.0059001935
000060 eb 68 4b 3b e0 ca 59 bb 8d 01 9f bc 48 a6 6d bc
       0.0031037878 -0.0033232495 -0.01940992 -0.014504977
000070 1e b8 15 3c e7 b2 54 bc 5c ec c0 3b 97 13 a4 3b
       0.009138135 -0.012982107 0.0058875512 0.005007218
000080 fc d5 7f 3b 34 cd 3f bb b5 f1 38 bb 41 b4 12 bc
       0.0039037457 -0.0029266598 -0.002822024 -0.008954109
000090 51 a8 99 3b ad d4 e2 3b 15 ec 33 bc a6 e3 d9 3c
       0.0046892543 0.0069223256 -0.010981579 0.026597809
0000a0 93 c6 84 bc 9b 9a 1b bc a1 b5 a6 bc 47 16 84 bc
       -0.016207969 -0.00949731 -0.02035028 -0.016123904
0000b0 9f a9 75 bc 36 fb 9f bb 96 d7 20 bc be 62 a0 3a
       -0.014994054 -0.0048822416 -0.009817025 0.0012236459
0000c0 bd 46 af bc e4 65 3b bb f4 c3 b5 3c b7 0c 4e 3a
       -0.021396035 -0.0028594667 0.022188164 0.0007860171
0000d0 55 7d e1 ba 32 7f 11 bc 6c 05 22 38 58 d6 37 bc
       -0.001720349 -0.008880423 3.862886e-05 -0.011220537
0000e0 0b a1 47 3a 47 a6 97 3c a6 22 5d 3c 5c 7a 0b 3c
       0.0007615245 0.018511904 0.01349703 0.0085130595
0000f0 85 0a 66 bc 55 53 b8 3c e8 f5 14 3c 7b 53 42 3b
       -0.014040594 0.022500673 0.009091832 0.002965181
000100 ae c7 09 3c 1f 2a b3 3b aa c1 ac bb 2c 8f 28 bc
       0.008409424 0.0054676677 -0.00527211 -0.010288041
000110 f6 0e 04 bc 73 33 96 bc ed f8 a2 bc 2a 9b 5f 3c
       -0.008060208 -0.01833508 -0.019894088 0.013647834
000120 33 41 30 bc 8f 9a 40 3a a9 b3 6e bc d8 76 57 bb
       -0.010757732 0.000734725 -0.0145692015 -0.0032877233
000130 22 c3 d8 3b e8 4a 4f 3b 7c 8a a7 3b e0 ce 0e 3c
       0.0066150585 0.003163034 0.005112944 0.008716315
000140 cb bd 8b bb 03 6e 07 bc 50 91 84 ba 59 2f 1a bb
       -0.0042645684 -0.008265975 -0.0010114107 -0.0023526757
000150 5e ea 2c bc 00 8b e2 bc 88 f9 e7 bc 0d 04 81 bb
       -0.010553924 -0.027654171 -0.028317228 -0.0039372505
000160 11 2d 45 bb 27 51 51 3a 94 05 c1 3c 93 c1 e3 3b
       -0.0030086676 0.000798481 0.02356223 0.006950566
000170 c0 89 86 bb 54 87 91 bc 0e 89 81 3c 9e e8 9b 3c
       -0.0041057765 -0.017764725 0.015812423 0.019031819
000180 f5 be ab bb 04 36 ca bb aa 5d 00 bc c2 93 06 3a
       -0.0052412697 -0.00617099 -0.007834831 0.0005133712
000190 3a 69 5f bc 1d 71 4c bb 32 27 04 3b 0a 8e 74 3a
       -0.013635928 -0.003119535 0.0020164964 0.0009329027
0001a0 16 1c 59 3c 4e 31 65 bc 1d a3 f9 bb 29 56 4d bc
       0.013251325 -0.013988806 -0.0076183216 -0.012532749
0001b0 5d 12 0b 3c 3c 8c a6 ba 09 5a 2a bc 27 27 f1 bb
       0.008488265 -0.0012706588 -0.010397443 -0.0073594037
0001c0 f6 cf 75 bc 3a 3f d9 bb 96 0e 59 bb 0a 45 d5 b9
       -0.015003195 -0.0066298516 -0.0033120266 -0.00040677964
0001d0 70 f5 1b 3c 93 2e 47 bc cd 6e 52 bc 58 14 0b 3c
       0.009518966 -0.0121571 -0.0128438 0.008488737
0001e0 cd cd e7 3a 7c 25 2f bc c3 a0 aa bc ef 07 80 bb
       0.0017685235 -0.010690089 -0.02082861 -0.0039071958
0001f0 8e 2c 95 bc 83 b6 e9 bc 5e c6 2a 3c fa 2a 0a 3b
       -0.018209722 -0.028529411 0.010423271 0.0021082745
000200 e4 dc ac 3b da 04 14 3b 97 5c 53 3c cd 87 05 bc
       0.0052753557 0.00225859 0.012900493 -0.008150053
000210 7c 1a 31 bb 4f 07 8d 3c ce b5 8a 3c 6d 6f 9f ba
       -0.0027023843 0.0172154 0.016932394 -0.0012163945
000220 2e 0d c6 bb 8a 8c b1 bb 16 b8 88 3b 3f d4 d4 3c
       -0.0060440516 -0.005418365 0.0041723354 0.025980113
000230 93 24 3d bc 05 fe 99 bb d2 7c 50 bc 04 a6 2d 3a
       -0.0115443645 -0.004699471 -0.012725072 0.00066241645
000240 f4 75 e0 3c 87 93 40 bb 9d 61 8b bc 19 77 bc bb
       0.027399994 -0.0029384808 -0.01701432 -0.0057515022
000250 c4 72 b0 bc 7b 0a 11 bb 4b fc 56 bc f5 a9 6a bb
       -0.0215391 -0.002213149 -0.013121675 -0.0035806869
000260 9a 91 e5 ba 72 18 05 bb 06 6f 54 bb 0d 07 45 3a
       -0.0017514706 -0.002030876 -0.0032414808 0.0007516004
000270 85 72 68 bb aa 74 9f bc 7f c4 40 bc 89 8a 42 3c
       -0.003546865 -0.01946481 -0.011765598 0.01187385
000280 40 e0 82 3c 0d eb 67 bc bb db 60 bc 93 e8 05 bc
       0.015976071 -0.014155162 -0.013724263 -0.008173126
000290 8f 55 b0 bb 7e 6b 75 bc ff b4 3b 3c 1c 70 f3 ba
       -0.005381293 -0.014979241 0.011456727 -0.001857284
0002a0 4d ee e2 38 b3 6b d1 ba 34 e3 47 bc 7a 21 25 bc
       0.00010820907 -0.0015977531 -0.012200166 -0.010078782
0002b0 71 0e 2f 3c 6a f6 7b bc c2 e2 6a 3c 98 94 91 b9
       0.010684595 -0.015378574 0.01433629 -0.00027767266
0002c0 a8 a8 87 ba cc e4 2c bc fb 72 ea 3c 42 e1 ec 3c
       -0.0010349946 -0.010552596 0.02861928 0.028916005
0002d0 43 97 0e 3c 2e e7 50 3a 1c 14 af ba 50 c4 7c bc
       0.008703056 0.0007969019 -0.0013357433 -0.015427664
0002e0 45 68 ba 3b f8 cf ce bb c4 da c4 bb 71 2a 8f bb
       0.0056886994 -0.006311413 -0.006007524 -0.004369073
0002f0 e9 b4 24 bc 2d a3 79 3c 63 7d 2b bc 44 d8 0b 3c
       -0.010052898 0.015236658 -0.010466906 0.008535448
000300 82 e0 54 bb d9 3a a0 bb e0 9a 29 bc 5a 78 8d 3b
       -0.003248245 -0.0048898277 -0.0103518665 0.0043173255
000310 ca 1b 46 ba 36 c0 28 3c 1b a9 50 39 89 34 3c 3c
       -0.00075572415 0.010299733 0.00019899422 0.011487135
000320 c5 a9 02 3c 92 51 5b bc 69 5c cc 39 c1 1b 25 bb
       0.0079750465 -0.013386147 0.00038978763 -0.0025193545
000330 72 70 bd bb 3d a9 d5 bc fe 00 09 bb bf d0 1f 3c
       -0.005781227 -0.026081676 -0.0020905132 0.009754359
000340 b0 23 a7 3b d6 9c 92 bc 04 35 d3 bb 52 e7 a1 3b
       0.00510069 -0.01789705 -0.006445529 0.0049409056
000350 61 7c 99 3b c6 de 76 3c 65 a5 05 3c ac e3 ed 3b
       0.0046840166 0.015067762 0.008157109 0.0072598066
000360 18 d7 82 3a 4b e2 13 3c 55 1c 04 3b 36 61 1b 3c
       0.0009982316 0.00902612 0.0020158489 0.009483626
000370 b9 b7 03 bb 5b 03 2a 3b ce d7 ff 3b b3 ba 07 bc
       -0.002009852 0.0025941941 0.0078077083 -0.008284259
000380 db 5c 60 bc 69 8b 27 bb 6d 40 64 3a 32 76 46 bc
       -0.0136940135 -0.0025565273 0.000870711 -0.012113141
000390 16 fd 05 3b f0 3d ca bb 05 68 9d bc 26 a2 b0 bb
       0.002044504 -0.0061719343 -0.01921464 -0.0053904234
0003a0 c7 2a 29 bc 47 a6 47 bc f9 80 08 bc fb 53 8c 3c
       -0.01032514 -0.01218564 -0.008331531 0.017129889
0003b0 c6 8c 38 3b 88 4e 53 bc c5 9b 14 bb 6b cf 8b 3b
       0.002816008 -0.012897141 -0.0022675854 0.0042666695
0003c0 17 43 1a 3b c8 75 07 bd 88 ab 07 3c b6 f9 ca bb
       0.0023538524 -0.03307131 0.008280642 -0.0061943186
0003d0 be 86 bc bc 88 18 b0 bb d2 71 b0 bb b7 fa 8f 3c
       -0.023013469 -0.005374018 -0.005384662 0.017575605
0003e0 17 28 96 3b 8e 67 fd 3b 2c 38 57 3b aa fc 44 3c
       0.004582416 0.007733292 0.0032839878 0.01202313
0003f0 60 19 ac 3b 3f 49 32 bb 8c 7c 63 3b a1 94 18 3c
       0.0052520484 -0.0027204303 0.0034711687 0.00931278

fc1.bias f4 [32]
000000 90 0d 89 3d ad 3b 30 bd 01 ee 8b 3d 7a 8a 39 3e
       0.0669204 -0.04302566 0.06832505 0.18119231
000010 8b c6 7d 3c fb 99 53 3c e7 d6 d2 3c 1f f2 d7 b9
       0.015489231 0.01291513 0.025737239 -0.0004118839
000020 36 15 ad 3c 9a c1 7c 3c 9e 2f 01 3f ce af 68 3d
       0.021128278 0.015427018 0.50463283 0.056808285
000030 9a 43 13 3e 6f ef 8a 3e b2 33 24 3d 1c 63 93 3d
       0.14381257 0.27135798 0.040088363 0.07196638
000040 13 13 3b 3d 96 85 9d 3c de 01 39 bd af 9a 3f bd
       0.045672487 0.019228738 -0.045167796 -0.046778377
000050 f7 50 3f bc fa 8b d8 3c d8 e0 30 3d f6 38 34 3d
       -0.011677018 0.026433934 0.043183178 0.043999635
000060 32 6e b5 3c ac a7 09 3e 38 5b 9a 3b 9f d6 6f 3d
       0.022147272 0.13442868 0.004710581 0.058554288
000070 d3 77 92 3d ef 71 aa 3b 15 73 33 3d 18 3d 68 3e
       0.07151761 0.00520157 0.043810923 0.22679555

fc2.weight f4 [4, 32]
000000 43 62 0b be 6f 8c 0f 3e 9a ac 7b 3e b6 22 c0 3d
       -0.13611703 0.14018415 0.24577561 0.093816206
000010 9e 33 43 3d 23 5b 95 3d d3 d4 04 3d 01 b0 e5 3c
       0.047656648 0.072927736 0.032429527 0.028038027
000020 c6 28 48 3e 7d 5d 5e bd ac c4 00 bf 4a a5 5c 3e
       0.19546804 -0.054288376 -0.503001 0.21547428
000030 c0 38 a5 3d 28 6e 5e be 1a ec 8a 3d 17 16 4f 3d
       0.08067465 -0.21721709 0.06783314 0.050558176
000040 98 4b 16 3c d1 85 11 3d 8b 42 d0 3d 05 52 68 3d
       0.009173296 0.035528008 0.10168942 0.056718845
000050 8e 0f 4d 3c 83 62 4b 3e 50 74 db bd 48 15 a9 be
       0.012515916 0.19861798 -0.10715544 -0.3302405
000060 b2 58 cd bd 75 4f c5 bd 42 30 4b bd a8 99 a5 3b
       -0.10026683 -0.09634296 -0.04960657 0.0050537176
000070 f4 fd 07 bd 79 86 10 3d 44 fe 35 be cf db f5 bd
       -0.033201173 0.035284493 -0.17772776 -0.12004816
000080 3f 34 2c be c6 c1 9e 3d cd c9 90 bc ea 3f ca 3a
       -0.16816805 0.07751803 -0.017674351 0.0015430425
000090 b3 46 25 bd d8 d4 da bc 92 16 ac bd d8 43 0a 3e
       -0.040350627 -0.02671282 -0.084027424 0.13502443
0000a0 e6 be 55 bb 7d 2e a1 bc a5 b1 77 3e 05 6e 41 3d
       -0.0032615005 -0.019675488 0.2418886 0.047224063
0000b0 09 ba c4 bd 28 95 09 3e 6b da c9 bd 6f 43 3c bd
       -0.09605796 0.13435805 -0.09856113 -0.045962747
0000c0 b9 f5 e4 3b 19 8e 97 bc 40 05 78 bd 78 ee 90 bc
       0.0069873002 -0.018500375 -0.06055188 -0.017691836
0000d0 d0 af 9d bb 8a 06 eb bd f1 e2 09 bb f7 48 bf 3d
       -0.0048122182 -0.114758566 -0.0021039809 0.09340089
0000e0 0f 85 4c bd b5 4f 06 3e 02 5e a9 bd ab bb 7c be
       -0.049931582 0.13116343 -0.08269884 -0.24680965
0000f0 7d 4b a1 be a0 df 54 bb b7 56 e2 3d 65 94 81 3d
       -0.31502905 -0.0032481924 0.11051696 0.06327132
000100 de b2 17 3d 89 4b f9 bd 02 8a 07 3e ea 90 ad 3e
       0.037035815 -0.1217261 0.1323624 0.33899623
000110 f8 5a 08 3e 1c a4 99 3e e2 52 b9 3d 75 6b 2b bd
       0.13315952 0.30008018 0.09049012 -0.041850526
000120 49 c6 b6 3d f1 00 93 bd 0b e9 72 bf 74 24 67 bd
       0.08924539 -0.07177914 -0.94886845 -0.05643125
000130 76 8e f5 bd 0b 04 14 bf 8e 05 2e 3e ad f9 05 3e
       -0.11990063 -0.5781867 0.16994306 0.13083525
000140 10 5e 5a 3e 53 29 1a 3e cc ba 3c be 36 6a 35 3d
       0.21324944 0.15054826 -0.18430632 0.044290744
000150 71 5e 95 bd 9f 8b e1 3e 0d 9c ff 3c 01 28 01 3d
       -0.07293404 0.44051835 0.03120234 0.03153229
000160 b9 98 e8 bd 17 a4 58 be 81 9e a2 bd 5c 3b 08 3e
       -0.113572545 -0.21156345 -0.079403885 0.13303894
000170 a7 a4 73 bd 07 09 fe bb cd 65 2f ba f3 fb 66 be
       -0.059483197 -0.007752541 -0.000669089 -0.22557048
000180 56 f4 0d 3e 2b ca 03 3d 28 91 ca bc ea d2 32 3e
       0.13862738 0.032175224 -0.024727419 0.1746327
000190 74 cd 98 bd 35 a6 d4 bc b1 9b 94 3d c8 32 27 3e
       -0.07461062 -0.02595816 0.07256258 0.16327965
0001a0 ea 61 0d be ad ee 3c bc 1a e0 e1 3e 63 b1 4f 3d
       -0.13806883 -0.011531514 0.44116288 0.05070628
0001b0 dc 8b eb be d9 ce c3 3d 95 53 fe bd 42 d1 50 be
       -0.46005142 0.095609374 -0.12418286 -0.20392326
0001c0 68 f7 5e 3c 9a a8 5b be f3 d3 f2 bc 83 91 58 be
       0.013608791 -0.21451035 -0.02964208 -0.21149258
0001d0 19 35 9a 3d 31 56 df bc c9 cb 09 3e 83 7c 50 bd
       0.07529659 -0.027262779 0.13456644 -0.050899994
0001e0 ef b9 46 3d 6e 7b 18 3c 23 cf 2e bd 6e 19 2e bd
       0.048517164 0.009306772 -0.04267801 -0.04250472
0001f0 f6 0a fe bc db fa ac bb 52 4e 03 3e ff 3a 44 be
       -0.031011086 -0.0052789277 0.12822846 -0.1916313

fc2.bias f4 [4]
000000 8a f9 bf be eb 65 1b 3f a3 c1 e1 bd 38 cf f5 3e
       -0.3749507 0.6070239 -0.110232614 0.48009658
